blazefaceback.pth (torch, 594825 bytes, 138 tensors)

backbone.0.weight f4 [24, 3, 5, 5]
0.0021362305 0.0022945404 -0.0027236938 0.0010461807 0.0044021606 0.0022449493 0.0043182373 -0.0016584396
-0.0003232956 0.0038166046 1.513958e-05 0.0030117035 -0.006893158 -0.008087158 -0.0046653748 0.0015954971
0.003479004 -0.009811401 -0.010925293 -0.0018310547 0.00064373016 0.0039596558 -0.010299683 -0.0013475418
0.0053863525 -0.0016717911 -0.0015201569 -0.0031814575 0.00016129017 0.0015621185 -0.0013952255 0.0019283295
0.0001616478 0.0018997192 0.003929138 -0.002521515 0.0013713837 -0.0027618408 -0.0032291412 -0.00019943714
-0.0005054474 0.003250122 -0.004058838 -0.005191803 0.00055885315 -0.0009803772 0.0032081604 -0.0047836304
0.0010843277 0.00223732 -0.002210617 -0.001074791 -0.002954483 0.0001847744 0.0008382797 -0.0010786057
0.0020828247 0.00013625622 0.0017080307 0.0021362305 -0.0019102097 0.0016860962 -0.0018987656 -0.0023860931
-0.0008363724 -0.00023663044 0.002817154 -0.0038089752 -0.0041389465 0.00088214874 -0.00084781647 0.002313614
-0.0044784546 0.0022602081 0.0011940002 -0.04058838 -0.15625 -0.7236328 0.2602539 0.07055664
-0.01979065 0.62402344 2.0507812 -1.1767578 0.060333252 -0.18078613 -0.59375 -2.0371094
0.24914551 -0.10809326 0.050048828 0.40063477 0.4033203 0.42797852 0.093322754 -0.12658691
-0.1003418 -0.24487305 -0.14453125 -0.06829834 0.09967041 -0.10308838 -0.88623047 0.03274536
0.19177246 0.26831055 0.8232422 3.1640625 -0.80566406 0.1694336 -0.062194824 -0.71728516
-2.1953125 0.26391602 -0.21459961 0.18713379 0.35668945 0.20861816 0.24133301 0.17028809
0.0473938 0.05770874 0.06970215 0.030181885 0.07281494 -0.20019531 -0.2775879 -0.75634766
-0.09112549 -0.082458496 0.21142578 0.16088867 2.2148438 -0.15527344 0.34838867 -0.12927246
-0.51220703 -1.4355469 0.50439453 -0.37573242 0.23217773 0.4428711 0.37109375 -0.03363037
0.07824707 -0.117370605 -0.23840332 -0.16369629 -0.2454834 -0.109802246 -0.06512451 -0.016036987
0.02557373 0.05657959 0.012275696 -0.013427734 -0.034057617 0.015419006 0.10070801 0.16467285
0.011154175 0.0047073364 0.027069092 0.08068848 0.24987793 0.005393982 -0.0236969 -0.015625
0.019515991 0.13012695 0.010070801 0.03741455 -0.020751953 -0.03363037 0.030258179 -0.0435791
0.008026123 0.07055664 0.09454346 0.003019333 -0.020446777 -0.031585693 0.010971069 -0.032440186
-0.09576416 0.01361084 0.04043579 0.047821045 -0.12347412 -0.14941406 -0.042022705 0.011878967
0.036865234 -0.014831543 -0.09832764 -0.058746338 0.035858154 0.024169922 -0.010848999 -0.0034332275
0.032287598 0.03704834 0.06011963 0.07342529 -0.0031871796 0.03579712 -0.026657104 -0.1003418
-0.19543457 -0.32202148 0.06750488 0.066345215 -0.047973633 -0.30419922 -0.42797852 -0.014152527
0.014671326 -0.013145447 -0.08807373 -0.21826172 -0.043548584 0.027770996 -0.0037269592 -0.03640747
-0.017944336 -0.0034980774 -0.031921387 -0.28881836 -0.22814941 -0.1484375 -0.052337646 -0.27685547
-0.89697266 -0.3383789 -0.6044922 0.0022144318 -0.46264648 0.13464355 2.3691406 0.87890625
0.051757812 -0.24267578 0.21594238 0.89990234 0.09838867 0.2097168 -0.13769531 -0.22155762
0.027709961 -0.03277588 -0.0063591003 -0.018753052 -0.2783203 -0.13012695 0.011528015 0.05697632
00000000: 0000 0c3b 0060 163b 0080 32bb 0020 893a
00000010: 0040 903b 0020 133b 0080 8d3b 0060 d9ba
00000020: 0080 a9b9 0020 7a3b 0000 7e37 0060 453b
00000030: 00e0 e1bb 0080 04bc 00e0 98bb 0020 d13a
00000040: 0000 643b 00c0 20bc 0000 33bc 0000 f0ba
00000050: 00c0 283a 00c0 813b 00c0 28bc 00a0 b0ba
00000060: 0080 b03b 0020 dbba 0040 c7ba 0080 50bb
00000070: 0020 2939 00c0 cc3a 00e0 b6ba 00c0 fc3a
00000080: 0080 2939 0000 f93a 00c0 803b 0040 25bb
00000090: 00c0 b33a 0000 35bb 00a0 53bb 0020 51b9
000000a0: 0080 04ba 0000 553b 0000 85bb 0020 aabb
000000b0: 0080 123a 0080 80ba 0040 523b 00c0 9cbb
000000c0: 0020 8e3a 00a0 123b 00e0 10bb 00e0 8cba
000000d0: 00a0 41bb 00c0 4139 00c0 5b3a 0060 8dba
000000e0: 0080 083b 00e0 0e39 00e0 df3a 0000 0c3b
000000f0: 0060 faba 0000 dd3a 00e0 f8ba 0060 1cbb
00000100: 0040 5bba 0020 78b9 00a0 383b 00a0 79bb
00000110: 00a0 87bb 0040 673a 0040 5eba 00a0 173b
00000120: 00c0 92bb 0020 143b 0080 9c3a 0040 26bd
00000130: 0000 20be 0040 39bf 0040 853e 0080 903d
00000140: 0020 a2bc 00c0 1f3f 0040 0340 00a0 96bf
00000150: 0020 773d 0020 39be 0000 18bf 0060 02c0
00000160: 0020 7f3e 0060 ddbd 0000 4d3d 0020 cd3e
00000170: 0080 ce3e 0020 db3e 0020 bf3d 00a0 01be
00000180: 0080 cdbd 00c0 7abe 0000 14be 00e0 8bbd
00000190: 0020 cc3d 0020 d3bd 00e0 62bf 0020 063d
000001a0: 0060 443e 0060 893e 00c0 523f 0080 4a40
000001b0: 0040 4ebf 0080 2d3e 00c0 7ebd 00a0 37bf
000001c0: 0080 0cc0 0020 873e 00c0 5bbe 00a0 3f3e
000001d0: 00a0 b63e 00a0 553e 0020 773e 0060 2e3e
000001e0: 0020 423d 0060 6c3d 00c0 8e3d 0040 f73c
000001f0: 0020 953d 0000 4dbe 0020 8ebe 00a0 41bf
00000200: 00a0 babd 00e0 a8bd 0080 583e 00c0 243e
00000210: 00c0 0d40 0000 1fbe 0060 b23e 0060 04be
00000220: 0020 03bf 00c0 b7bf 0020 013f 0060 c0be
00000230: 00c0 6d3e 00c0 e23e 0000 be3e 00c0 09bd
00000240: 0040 a03d 0060 f0bd 0020 74be 00a0 27be
00000250: 0060 7bbe 00e0 e0bd 0060 85bd 0060 83bc
00000260: 0080 d13c 00c0 673d 0020 493c 0000 5cbc
00000270: 0080 0bbd 00a0 7c3c 0040 ce3d 00a0 283e
00000280: 00c0 363c 0040 9a3b 00c0 dd3c 0040 a53d
00000290: 00e0 7f3e 00c0 b03b 0020 c2bc 0000 80bc
000002a0: 00e0 9f3c 0040 053e 0000 253c 0040 193d
000002b0: 0000 aabc 00c0 09bd 00e0 f73c 0080 32bd
000002c0: 0080 033c 0080 903d 00a0 c13d 00e0 453b
000002d0: 0080 a7bc 0060 01bd 00c0 333c 00e0 04bd
000002e0: 0020 c4bd 0000 5f3c 00a0 253d 00e0 433d
000002f0: 00e0 fcbd 0000 19be 0020 2cbd 00a0 423c
00000300: 0000 173d 0000 73bc 0060 c9bd 00a0 70bd
00000310: 00e0 123d 0000 c63c 00c0 31bc 0000 61bb
00000320: 0040 043d 00c0 173d 0040 763d 0060 963d
00000330: 00e0 50bb 00a0 123d 0060 dabc 0080 cdbd
00000340: 0020 48be 00e0 a4be 0040 8a3d 00e0 873d
00000350: 0080 44bd 00c0 9bbe 0020 dbbe 00e0 67bc
00000360: 0060 703c 0060 57bc 0060 b4bd 0080 5fbe
00000370: 0060 32bd 0080 e33c 0040 74bb 0020 15bd
00000380: 0000 93bc 0040 65bb 00c0 02bd 00e0 93be
00000390: 00a0 69be 0000 18be 0060 56bd 00c0 8dbe
000003a0: 00a0 65bf 0040 adbe 00c0 1abf 0020 113b
000003b0: 00e0 ecbe 00e0 093e 00a0 1740 0000 613f
000003c0: 0000 543d 0080 78be 0020 5d3e 0060 663f
000003d0: 0080 c93d 00c0 563e 0000 0dbe 00e0 62be
000003e0: 0000 e33c 0040 06bd 0060 d0bb 00a0 99bc
000003f0: 0080 8ebe 0040 05be 00e0 3c3c 0060 693d

backbone.0.bias f4 [24]
-0.18078613 1.4726562 -0.47045898 2.6230469 -2.2421875 -1.6230469 -3.9121094 1.8994141
0.6845703 1.0478516 2.7089844 1.0458984 1.7431641 -0.390625 -0.23266602 -0.3425293
0.60058594 1.4111328 0.83496094 -0.17919922 -0.13769531 0.25732422 0.8144531 -0.43164062
00000000: 0020 39be 0080 bc3f 00e0 f0be 00e0 2740
00000010: 0080 0fc0 00c0 cfbf 0060 7ac0 0020 f33f
00000020: 0040 2f3f 0020 863f 0060 2d40 00e0 853f
00000030: 0020 df3f 0000 c8be 0040 6ebe 0060 afbe
00000040: 00c0 193f 00a0 b43f 00c0 553f 0080 37be
00000050: 0000 0dbe 00c0 833e 0080 503f 0000 ddbe

backbone.2.convs.0.weight f4 [24, 1, 3, 3]
1.4003906 2.1386719 0.13793945 1.1982422 1.8320312 -0.6113281 1.7373047 0.4177246
-1.8574219 -0.23815918 -0.13781738 -0.35205078 -0.7910156 2.5644531 -1.1660156 -0.40112305
-0.7104492 -0.31640625 2.4453125 -0.9350586 -0.7763672 3.9570312 1.5029297 -0.15319824
-3.0976562 -2.1738281 -0.04751587 -0.8803711 2.9082031 -0.38745117 -1.3144531 -1.7675781
-0.015083313 0.36499023 0.16674805 0.045684814 1.5380859 -0.79589844 -4.3476562 0.8491211
-1.9873047 -3.4550781 1.7880859 1.2597656 0.7001953 -0.5234375 -0.32763672 0.83935547
0.017181396 -5.2695312 1.1210938 -1.3378906 0.47094727 0.3869629 -0.23791504 3.0722656
0.6464844 0.56396484 2.9550781 1.7626953 -0.9248047 0.08538818 -1.8837891 -0.7207031
-2.9121094 0.17956543 0.25073242 -0.58203125 0.13378906 -0.25561523 0.14868164 0.21496582
-1.6953125 -1.4140625 -0.46948242 1.8740234 5.0234375 -2.46875 -0.63623047 -0.11895752
-0.5834961 0.51220703 4.7460938 0.2565918 -0.10852051 -0.44433594 -0.8276367 -0.4580078
0.119628906 -0.6904297 -0.15490723 0.984375 0.8251953 1.7460938 -6.40625 -1.3925781
0.21069336 -1.2851562 0.18774414 0.5913086 -2.4082031 0.69677734 0.29882812 -5.8789062
0.80566406 0.6796875 2.3925781 0.63378906 0.113464355 -0.16381836 -0.09411621 1.3271484
-6.8554688 0.46289062 0.39526367 1.0263672 0.16467285 -1.1572266 -2.2226562 1.9375
-3.4238281 -3.8046875 0.4248047 1.1796875 0.16552734 1.3935547 1.7646484 2.8007812
-0.64208984 0.5629883 -0.046783447 -2.2285156 -0.84375 0.123046875 -0.86621094 -0.3557129
0.38476562 1.5986328 -2.7753906 3.8105469 2.1777344 -0.6171875 1.3964844 0.22363281
-0.08117676 -1.1386719 -0.24353027 -0.9423828 6.2070312 -0.43847656 -0.16601562 -0.5019531
-0.14746094 -0.17126465 -0.88378906 -0.58691406 0.3310547 4.7773438 -1.8896484 0.15673828
-0.8354492 -0.4663086 0.08117676 0.42504883 -0.7060547 0.08111572 3.0742188 -4.6328125
0.3305664 0.4958496 1.0566406 0.3779297 0.7944336 0.8535156 -0.8222656 -3.7011719
0.8745117 0.0069999695 -1.7294922 0.41430664 2.6699219 6.2226562 1.5605469 0.7055664
1.3027344 0.29003906 0.75341797 0.3466797 0.097229004 1.0771484 -5.4179688 0.10235596
0.5102539 -0.9321289 0.24963379 -0.030334473 0.14367676 -0.015151978 0.068603516 -7.6210938
0.46264648 -0.79785156 1.7041016 -0.13452148 -0.033294678 -0.020645142 0.23620605 0.6274414
0.4177246 -2.328125 0.2590332 -0.2397461 -5.8984375 0.6723633 0.030883789 -0.07989502
00000000: 0040 b33f 00e0 0840 0040 0d3e 0060 993f
00000010: 0080 ea3f 0080 1cbf 0060 de3f 00e0 d53e
00000020: 00c0 edbf 00e0 73be 0020 0dbe 0040 b4be
00000030: 0080 4abf 0020 2440 0040 95bf 0060 cdbe
00000040: 00e0 35bf 0000 a2be 0080 1c40 0060 6fbf
00000050: 00c0 46bf 0040 7d40 0060 c03f 00e0 1cbe
00000060: 0040 46c0 0020 0bc0 00a0 42bd 0060 61bf
00000070: 0020 3a40 0060 c6be 0040 a8bf 0040 e2bf
00000080: 0020 77bc 00e0 ba3e 00c0 2a3e 0020 3b3d
00000090: 00e0 c43f 00c0 4bbf 0020 8bc0 0060 593f
000000a0: 0060 febf 0020 5dc0 00e0 e43f 0040 a13f
000000b0: 0040 333f 0000 06bf 00c0 a7be 00e0 563f
000000c0: 00c0 8c3c 00a0 a8c0 0080 8f3f 0040 abbf
000000d0: 0020 f13e 0020 c63e 00a0 73be 00a0 4440
000000e0: 0080 253f 0060 103f 0020 3d40 00a0 e13f
000000f0: 00c0 6cbf 00e0 ae3d 0020 f1bf 0080 38bf
00000100: 0060 3ac0 00e0 373e 0060 803e 0000 15bf
00000110: 0000 093e 00e0 82be 0040 183e 0020 5c3e
00000120: 0000 d9bf 0000 b5bf 0060 f0be 00e0 ef3f
00000130: 00c0 a040 0000 1ec0 00e0 22bf 00a0 f3bd
00000140: 0060 15bf 0020 033f 00e0 9740 0060 833e
00000150: 0040 debd 0080 e3be 00e0 53bf 0080 eabe
00000160: 0000 f53d 00c0 30bf 00a0 1ebe 0000 7c3f
00000170: 0040 533f 0080 df3f 0000 cdc0 0040 b2bf
00000180: 00c0 573e 0080 a4bf 0040 403e 0060 173f
00000190: 0020 1ac0 0060 323f 0000 993e 0020 bcc0
000001a0: 0040 4e3f 0000 2e3f 0020 1940 0040 223f
000001b0: 0060 e83d 00c0 27be 00c0 c0bd 00e0 a93f
000001c0: 0060 dbc0 0000 ed3e 0060 ca3e 0060 833f
000001d0: 00a0 283e 0020 94bf 0040 0ec0 0000 f83f
000001e0: 0020 5bc0 0080 73c0 0080 d93e 0000 973f
000001f0: 0080 293e 0060 b23f 00e0 e13f 0040 3340
00000200: 0060 24bf 0020 103f 00a0 3fbd 00a0 0ec0
00000210: 0000 58bf 0000 fc3d 00c0 5dbf 0020 b6be
00000220: 0000 c53e 00a0 cc3f 00a0 31c0 00e0 7340
00000230: 0060 0b40 0000 1ebf 00c0 b23f 0000 653e
00000240: 0040 a6bd 00c0 91bf 0060 79be 0040 71bf
00000250: 00a0 c640 0080 e0be 0000 2abe 0080 00bf
00000260: 0000 17be 0060 2fbe 0040 62bf 0040 16bf
00000270: 0080 a93e 00e0 9840 00e0 f1bf 0080 203e
00000280: 00e0 55bf 00c0 eebe 0040 a63d 00a0 d93e
00000290: 00c0 34bf 0020 a63d 00c0 4440 0040 94c0
000002a0: 0040 a93e 00e0 fd3e 0040 873f 0080 c13e
000002b0: 0060 4b3f 0080 5a3f 0080 52bf 00e0 6cc0
000002c0: 00e0 5f3f 0060 e53b 0060 ddbf 0020 d43e
000002d0: 00e0 2a40 0020 c740 00c0 c73f 00a0 343f
000002e0: 00c0 a63f 0080 943e 00e0 403f 0080 b13e
000002f0: 0020 c73d 00e0 893f 0060 adc0 00a0 d13d
00000300: 00a0 023f 00a0 6ebf 00a0 7f3e 0080 f8bc
00000310: 0020 133e 0040 78bc 0080 8c3d 00e0 f3c0
00000320: 00e0 ec3e 0040 4cbf 0020 da3f 00c0 09be
00000330: 0060 08bd 0020 a9bc 00e0 713e 00a0 203f
00000340: 00e0 d53e 0000 15c0 00a0 843e 0080 75be
00000350: 00c0 bcc0 0020 2c3f 0000 fd3c 00a0 a3bd

backbone.2.convs.0.bias f4 [24]
0.0 0.0 0.0 0.0 0.0 0.0 0.0 0.0
0.0 0.0 0.0 0.0 0.0 0.0 0.0 0.0
0.0 0.0 0.0 0.0 0.0 0.0 0.0 0.0
00000000: 0000 0000 0000 0000 0000 0000 0000 0000
00000010: 0000 0000 0000 0000 0000 0000 0000 0000
00000020: 0000 0000 0000 0000 0000 0000 0000 0000
00000030: 0000 0000 0000 0000 0000 0000 0000 0000
00000040: 0000 0000 0000 0000 0000 0000 0000 0000
00000050: 0000 0000 0000 0000 0000 0000 0000 0000

backbone.2.convs.1.weight f4 [24, 24, 1, 1]
0.15698242 0.012680054 0.14208984 -0.0044670105 -0.04421997 -0.055419922 0.12646484 -0.016708374
0.32348633 0.004917145 -0.054840088 -0.040496826 0.022201538 0.06829834 0.06970215 -0.09289551
0.004634857 -0.21618652 -0.045806885 -0.08868408 0.20532227 -0.009185791 -0.057861328 -0.014350891
-0.013679504 0.31103516 0.036224365 -0.018127441 -0.019515991 -0.008682251 -0.0032367706 -0.025543213
-0.034332275 -0.011505127 0.030166626 -0.0055389404 0.11413574 0.0021457672 0.0004043579 -0.022109985
0.0048065186 -0.016403198 0.030517578 -0.0748291 -0.08380127 0.16296387 0.0050086975 -0.0028514862
-0.07940674 0.04486084 -0.06854248 -0.021530151 -0.0014362335 -0.03643799 0.008552551 -0.0019264221
0.14123535 0.11773682 -0.1217041 -0.13427734 -0.013076782 0.15466309 -0.050628662 -0.21081543
0.11529541 -0.15576172 0.09466553 0.10083008 0.0126953125 0.023086548 -0.0390625 0.060821533
-0.019180298 -0.07897949 0.107177734 0.0635376 -0.006095886 -0.05633545 -0.018234253 -0.05215454
-0.055511475 -0.053619385 0.025253296 0.0035896301 0.012382507 -0.056427002 -0.0060043335 -0.08666992
-0.008796692 -0.051879883 0.023223877 -0.010894775 -0.005508423 0.011711121 0.28735352 0.041809082
0.07867432 0.023406982 -0.03201294 -0.0066223145 -0.20288086 0.018661499 0.3166504 0.0015058517
0.11199951 0.034332275 -0.029510498 0.020736694 -0.0052871704 0.04208374 0.037750244 -0.06616211
-0.03491211 0.034942627 0.03781128 0.07543945 0.054901123 0.038726807 -0.0004146099 -0.019134521
-0.06842041 -0.0023212433 -0.07421875 -0.064331055 -0.08508301 0.13171387 -0.07299805 0.14050293
0.03765869 -0.028015137 -0.008735657 0.078308105 -0.103881836 -0.028396606 -0.030792236 0.026229858
0.031082153 0.08087158 -0.1772461 0.015945435 0.09472656 0.019943237 -0.070373535 -0.06518555
-0.1887207 0.06866455 -0.10235596 0.0037155151 -0.0063209534 -0.15698242 -0.07336426 -0.07385254
0.52734375 -0.039398193 -0.02633667 -0.08569336 -0.003250122 0.12927246 0.03161621 -0.04397583
-0.027633667 -0.066589355 -0.06756592 -0.609375 -0.20617676 0.028366089 0.030426025 0.07470703
-0.047851562 0.048461914 -0.00274086 0.05999756 0.1307373 -0.068115234 0.064819336 -0.0690918
-0.09643555 -0.059143066 0.0046577454 0.027023315 0.15710449 -0.034942627 0.08972168 0.02407837
-0.32202148 -0.10522461 0.042510986 -0.03515625 0.09283447 -0.062683105 0.027694702 0.00944519
0.061462402 -0.022567749 0.04067993 -0.026306152 -0.09124756 -0.021072388 -0.040771484 -0.015365601
0.009086609 -0.0803833 0.054779053 0.0993042 0.13659668 0.034606934 0.036132812 0.040252686
-0.099243164 -0.06488037 -0.059448242 -0.13098145 0.045166016 -0.10064697 -0.09674072 0.031066895
0.059692383 -0.020202637 0.5058594 -0.05038452 -0.014533997 -0.012290955 -0.06628418 -0.01928711
-0.022888184 -0.14672852 0.028915405 -0.17272949 0.022369385 -0.012016296 0.07446289 -0.039520264
0.048583984 0.042785645 -0.09210205 -0.25146484 0.031204224 -0.024841309 0.07507324 -0.11340332
0.13476562 0.0024986267 -0.24194336 0.04244995 0.08483887 -0.066345215 -0.020690918 -0.00541687
0.2734375 0.17077637 0.048614502 -0.047607422 0.025131226 0.23461914 -0.062683105 -0.041870117
00000000: 00c0 203e 00c0 4f3c 0080 113e 0060 92bb
00000010: 0020 35bd 0000 63bd 0080 013e 00e0 88bc
00000020: 00a0 a53e 0020 a13b 00a0 60bd 00e0 25bd
00000030: 00e0 b53c 00e0 8b3d 00c0 8e3d 0040 bebd
00000040: 00e0 973b 0060 5dbe 00a0 3bbd 00a0 b5bd
00000050: 0040 523e 0080 16bc 0000 6dbd 0020 6bbc
00000060: 0020 60bc 0040 9f3e 0060 143d 0080 94bc
00000070: 00e0 9fbc 0040 0ebc 0020 54bb 0040 d1bc
00000080: 00a0 0cbd 0080 3cbc 0020 f73c 0080 b5bb
00000090: 00c0 e93d 00a0 0c3b 0000 d439 0020 b5bc
000000a0: 0080 9d3b 0060 86bc 0000 fa3c 0040 99bd
000000b0: 00a0 abbd 00e0 263e 0020 a43b 00e0 3abb
000000c0: 00a0 a2bd 00c0 373d 0060 8cbd 0060 b0bc
000000d0: 0040 bcba 0040 15bd 0020 0c3c 0080 fcba
000000e0: 00a0 103e 0020 f13d 0040 f9bd 0080 09be
000000f0: 0040 56bc 0060 1e3e 0060 4fbd 00e0 57be
00000100: 0020 ec3d 0080 1fbe 00e0 c13d 0080 ce3d
00000110: 0000 503c 0020 bd3c 0000 20bd 0020 793d
00000120: 0020 9dbc 00c0 a1bd 0080 db3d 0020 823d
00000130: 00c0 c7bb 00c0 66bd 0060 95bc 00a0 55bd
00000140: 0060 63bd 00a0 5bbd 00e0 ce3c 0040 6b3b
00000150: 00e0 4a3c 0020 67bd 00c0 c4bb 0080 b1bd
00000160: 0020 10bc 0080 54bd 0040 be3c 0080 32bc
00000170: 0080 b4bb 00e0 3f3c 0020 933e 0040 2b3d
00000180: 0020 a13d 00c0 bf3c 0020 03bd 0000 d9bb
00000190: 00c0 4fbe 00e0 983c 0020 a23e 0060 c53a
000001a0: 0060 e53d 00a0 0c3d 00c0 f1bc 00e0 a93c
000001b0: 0040 adbb 0060 2c3d 00a0 1a3d 0080 87bd
000001c0: 0000 0fbd 0020 0f3d 00e0 1a3d 0080 9a3d
000001d0: 00e0 603d 00a0 1e3d 0060 d9b9 00c0 9cbc
000001e0: 0020 8cbd 0020 18bb 0000 98bd 00c0 83bd
000001f0: 0040 aebd 00e0 063e 0080 95bd 00e0 0f3e
00000200: 0040 1a3d 0080 e5bc 0020 0fbc 0060 a03d
00000210: 00c0 d4bd 00a0 e8bc 0040 fcbc 00e0 d63c
00000220: 00a0 fe3c 00a0 a53d 0080 35be 00a0 823c
00000230: 0000 c23d 0060 a33c 0020 90bd 0080 85bd
00000240: 0040 41be 00a0 8c3d 00a0 d1bd 0080 733b
00000250: 0020 cfbb 00c0 20be 0040 96bd 0040 97bd
00000260: 0000 073f 0060 21bd 00c0 d7bc 0080 afbd
00000270: 0000 55bb 0060 043e 0080 013d 0020 34bd
00000280: 0060 e2bc 0060 88bd 0060 8abd 0000 1cbf
00000290: 0020 53be 0060 e83c 0040 f93c 0000 993d
000002a0: 0000 44bd 0080 463d 00a0 33bb 00c0 753d
000002b0: 00e0 053e 0080 8bbd 00c0 843d 0080 8dbd
000002c0: 0080 c5bd 0040 72bd 00a0 983b 0060 dd3c
000002d0: 00e0 203e 0020 0fbd 00c0 b73d 0040 c53c
000002e0: 00e0 a4be 0080 d7bd 0020 2e3d 0000 10bd
000002f0: 0020 be3d 0060 80bd 00e0 e23c 00c0 1a3c
00000300: 00c0 7b3d 00e0 b8bc 00a0 263d 0080 d7bc
00000310: 00e0 babd 00a0 acbc 0000 27bd 00c0 7bbc
00000320: 00e0 143c 00a0 a4bd 0060 603d 0060 cb3d
00000330: 00e0 0b3e 00c0 0d3d 0000 143d 00e0 243d
00000340: 0040 cbbd 00e0 84bd 0080 73bd 0020 06be
00000350: 0000 393d 0020 cebd 0020 c6bd 0080 fe3c
00000360: 0080 743d 0080 a5bc 0080 013f 0060 4ebd
00000370: 0020 6ebc 0060 49bc 00c0 87bd 0000 9ebc
00000380: 0080 bbbc 0040 16be 00e0 ec3c 00e0 30be
00000390: 0040 b73c 00e0 44bc 0080 983d 00e0 21bd
000003a0: 0000 473d 0040 2f3d 00a0 bcbd 00c0 80be
000003b0: 00a0 ff3c 0080 cbbc 00c0 993d 0040 e8bd
000003c0: 0000 0a3e 00c0 233b 00c0 77be 00e0 2d3d
000003d0: 00c0 ad3d 00e0 87bd 0080 a9bc 0080 b1bb
000003e0: 0000 8c3e 00e0 2e3e 0020 473d 0000 43bd
000003f0: 00e0 cd3c 0040 703e 0060 80bd 0080 2bbd

backbone.2.convs.1.bias f4 [24]
-1.7460938 0.21057129 0.33276367 0.20251465 -2.578125 0.6147461 -1.8203125 0.29760742
0.81640625 -0.6191406 0.9135742 3.8339844 -1.3232422 -7.84375 -1.7138672 1.5791016
1.1757812 2.3457031 -2.953125 0.105529785 -2.2792969 0.55566406 2.3847656 1.6083984
00000000: 0080 dfbf 00a0 573e 0060 aa3e 0060 4f3e
00000010: 0000 25c0 0060 1d3f 0000 e9bf 0060 983e
00000020: 0000 513f 0080 1ebf 00e0 693f 0060 7540
00000030: 0060 a9bf 0000 fbc0 0060 dbbf 0020 ca3f
00000040: 0080 963f 0020 1640 0000 3dc0 0020 d83d
00000050: 00e0 11c0 0040 0e3f 00a0 1840 00e0 cd3f

backbone.3.convs.0.weight f4 [24, 1, 3, 3]
1.703125 2.1835938 1.0498047 2.4023438 3.5820312 2.2714844 1.0195312 4.3632812
0.9921875 0.099731445 -0.22521973 0.35546875 -0.18017578 6.53125 3.4453125 0.42895508
1.6669922 1.3857422 -0.30566406 -1.2304688 1.8359375 0.036132812 -3.3085938 2.3964844
-0.45263672 0.67333984 0.94140625 0.24621582 0.25439453 -0.34448242 -0.2578125 -7.6679688
-0.09564209 -0.7324219 -0.58691406 -0.07727051 -0.7241211 -2.2382812 -0.23828125 -0.9423828
-2.7714844 -2.0761719 0.9091797 -1.4189453 -1.7158203 0.8208008 1.3408203 0.35253906
2.3046875 -4.609375 -0.017608643 1.0087891 1.4404297 0.6772461 0.99316406 3.5742188
1.8847656 -0.29467773 -1.7558594 -0.12286377 -0.74853516 -2.9960938 -1.2333984 -0.5390625
-2.8046875 -1.2558594 -0.4987793 -2.4492188 -1.1787109 0.2763672 -0.0025844574 -0.76464844
0.6254883 1.7265625 2.3339844 1.7480469 -0.54541016 -2.9023438 0.56933594 -0.20446777
-2.3886719 -0.609375 -0.29467773 -0.2783203 0.6713867 2.7519531 -0.21484375 1.7265625
3.5625 0.6035156 0.2130127 0.5078125 -0.47216797 1.3730469 -5.0039062 -0.59375
1.1513672 -2.8925781 -1.4628906 -0.09326172 -0.2919922 0.15014648 0.71777344 4.6835938
1.1708984 0.40551758 -2.6699219 0.8876953 0.36767578 2.4921875 0.7475586 0.13330078
4.4179688 0.6298828 0.2709961 -0.9394531 0.2919922 -3.2734375 -0.4855957 -4.4023438
1.2128906 6.7226562 -2.0722656 0.5371094 1.7412109 -2.2050781 1.0175781 0.3713379
0.15075684 -0.8208008 -2.7851562 -3.8984375 0.064575195 -5.2226562 -1.9072266 -0.42163086
-3.9550781 -1.0820312 -0.6928711 2.5878906 -1.2529297 -1.0615234 -1.6162109 0.4284668
0.62597656 2.8847656 1.390625 0.05026245 -3.3339844 0.5053711 -0.24804688 -1.5722656
-0.46655273 0.73779297 3.609375 1.4804688 1.1982422 -1.9189453 -0.8066406 -0.38378906
-2.7636719 -1.4072266 -1.9599609 -2.4042969 -1.8759766 -0.66552734 0.6621094 1.1933594
-0.058288574 2.4160156 3.1523438 -0.89697266 1.9667969 0.007858276 0.5908203 5.8671875
2.3808594 0.19396973 2.3320312 1.4580078 -0.2932129 -0.48046875 -0.052337646 0.52441406
0.04269409 0.3737793 0.8364258 6.0859375 0.8691406 -0.13500977 -0.12756348 0.5917969
-0.3930664 -6.9726562 -0.7470703 -0.17492676 0.77441406 0.14929199 0.375 -0.9760742
-1.4824219 0.15161133 1.46875 -1.1386719 -0.2734375 2.9472656 1.0683594 -0.24450684
0.19763184 0.36328125 2.3535156 -3.9609375 0.6982422 0.82421875 1.6396484 0.25683594
00000000: 0000 da3f 00c0 0b40 0060 863f 00c0 1940
00000010: 0040 6540 0060 1140 0080 823f 00a0 8b40
00000020: 0000 7e3f 0040 cc3d 00a0 66be 0000 b63e
00000030: 0080 38be 0000 d140 0080 5c40 00a0 db3e
00000040: 0060 d53f 0060 b13f 0080 9cbe 0080 9dbf
00000050: 0000 eb3f 0000 143d 00c0 53c0 0060 1940
00000060: 00c0 e7be 0060 2c3f 0000 713f 0020 7c3e
00000070: 0040 823e 0060 b0be 0000 84be 0060 f5c0
00000080: 00e0 c3bd 0080 3bbf 0040 16bf 0040 9ebd
00000090: 0060 39bf 0040 0fc0 0000 74be 0040 71bf
000000a0: 0060 31c0 00e0 04c0 00c0 683f 00a0 b5bf
000000b0: 00a0 dbbf 0020 523f 00a0 ab3f 0080 b43e
000000c0: 0080 1340 0080 93c0 0040 90bc 0020 813f
000000d0: 0060 b83f 0060 2d3f 0040 7e3f 00c0 6440
000000e0: 0040 f13f 00e0 96be 00c0 e0bf 00a0 fbbd
000000f0: 00a0 3fbf 00c0 3fc0 00e0 9dbf 0000 0abf
00000100: 0080 33c0 00c0 a0bf 0060 ffbe 00c0 1cc0
00000110: 00e0 96bf 0080 8d3e 0060 29bb 00c0 43bf
00000120: 0020 203f 0000 dd3f 0060 1540 00c0 df3f
00000130: 00a0 0bbf 00c0 39c0 00c0 113f 0060 51be
00000140: 00e0 18c0 0000 1cbf 00e0 96be 0080 8ebe
00000150: 00e0 2b3f 0020 3040 0000 5cbe 0000 dd3f
00000160: 0000 6440 0080 1a3f 0020 5a3e 0000 023f
00000170: 00c0 f1be 00c0 af3f 0020 a0c0 0000 18bf
00000180: 0060 933f 0020 39c0 0040 bbbf 0000 bfbd
00000190: 0080 95be 00c0 193e 00c0 373f 00e0 9540
000001a0: 00e0 953f 00a0 cf3e 00e0 2ac0 0040 633f
000001b0: 0040 bc3e 0080 1f40 0060 3f3f 0080 083e
000001c0: 0060 8d40 0040 213f 00c0 8a3e 0080 70bf
000001d0: 0080 953e 0080 51c0 00a0 f8be 00e0 8cc0
000001e0: 0040 9b3f 0020 d740 00a0 04c0 0080 093f
000001f0: 00e0 de3f 0020 0dc0 0040 823f 0020 be3e
00000200: 0060 1a3e 0020 52bf 0040 32c0 0080 79c0
00000210: 0040 843d 0020 a7c0 0020 f4bf 00e0 d7be
00000220: 0020 7dc0 0080 8abf 0060 31bf 00a0 2540
00000230: 0060 a0bf 00e0 87bf 00e0 cebf 0060 db3e
00000240: 0040 203f 00a0 3840 0000 b23f 00e0 4d3d
00000250: 0060 55c0 0060 013f 0000 7ebe 0040 c9bf
00000260: 00e0 eebe 00e0 3c3f 0000 6740 0080 bd3f
00000270: 0060 993f 00a0 f5bf 0080 4ebf 0080 c4be
00000280: 00e0 30c0 0020 b4bf 00e0 fabf 00e0 19c0
00000290: 0020 f0bf 0060 2abf 0080 293f 00c0 983f
000002a0: 00c0 6ebd 00a0 1a40 00c0 4940 00a0 65bf
000002b0: 00c0 fb3f 00c0 003c 0040 173f 00c0 bb40
000002c0: 0060 1840 00a0 463e 0040 1540 00a0 ba3f
000002d0: 0020 96be 0000 f6be 0060 56bd 0040 063f
000002e0: 00e0 2e3d 0060 bf3e 0020 563f 00c0 c240
000002f0: 0080 5e3f 0040 0abe 00a0 02be 0080 173f
00000300: 0040 c9be 0020 dfc0 0040 3fbf 0020 33be
00000310: 0040 463f 00e0 183e 0000 c03e 00e0 79bf
00000320: 00c0 bdbf 0040 1b3e 0000 bc3f 00c0 91bf
00000330: 0000 8cbe 00a0 3c40 00c0 883f 0060 7abe
00000340: 0060 4a3e 0000 ba3e 00a0 1640 0080 7dc0
00000350: 00c0 323f 0000 533f 00e0 d13f 0080 833e

backbone.3.convs.0.bias f4 [24]
0.0 0.0 0.0 0.0 0.0 0.0 0.0 0.0
0.0 0.0 0.0 0.0 0.0 0.0 0.0 0.0
0.0 0.0 0.0 0.0 0.0 0.0 0.0 0.0
00000000: 0000 0000 0000 0000 0000 0000 0000 0000
00000010: 0000 0000 0000 0000 0000 0000 0000 0000
00000020: 0000 0000 0000 0000 0000 0000 0000 0000
00000030: 0000 0000 0000 0000 0000 0000 0000 0000
00000040: 0000 0000 0000 0000 0000 0000 0000 0000
00000050: 0000 0000 0000 0000 0000 0000 0000 0000

backbone.3.convs.1.weight f4 [24, 24, 1, 1]
-0.06390381 0.0105896 0.00579834 -0.002380371 -0.047973633 0.03616333 -0.0019483566 0.020004272
-0.0496521 -0.0012931824 0.01586914 -0.018081665 -0.019210815 0.041870117 0.027328491 0.03591919
-0.031829834 0.03479004 -0.07324219 -0.023712158 -0.0033435822 0.055267334 0.0065231323 0.0993042
-0.00070762634 -0.16247559 -0.002916336 0.09832764 0.09777832 0.059020996 0.004688263 0.06097412
0.13427734 -0.060821533 -0.008605957 -0.013473511 -0.011222839 0.024108887 -0.009597778 -0.028305054
0.012771606 0.027404785 0.026245117 0.020553589 -0.058288574 -0.057250977 -0.00072336197 -0.0680542
-0.04385376 -0.006549835 0.011238098 -0.027877808 0.018432617 -0.036315918 0.045684814 0.0072631836
-0.003856659 0.049987793 -0.017028809 0.0036697388 0.014854431 0.067993164 -0.03515625 0.005710602
0.028915405 0.10235596 -0.0069503784 0.089782715 -0.015419006 -0.0015277863 0.030883789 -0.001701355
0.008377075 -0.07647705 0.049591064 0.058135986 0.02658081 0.11279297 -0.023727417 -0.0087509155
-0.027023315 0.101501465 0.0317688 -0.066467285 -0.03677368 0.099609375 -0.0015125275 -0.013504028
-0.0053901672 -0.023727417 0.0047569275 -0.012535095 -0.04083252 0.015594482 0.06225586 -0.019058228
0.0103302 -0.012184143 0.012458801 0.0028896332 -0.0118255615 0.020080566 0.020065308 -0.0039405823
-0.009155273 -0.008781433 0.018539429 -0.010421753 0.012252808 0.017089844 0.013076782 -0.009056091
-0.014907837 0.004142761 0.0007863045 -0.021484375 -0.03173828 0.030303955 0.012016296 0.0001296997
-0.00970459 0.020736694 -0.030258179 0.04360962 0.01889038 0.0003950596 -0.018173218 0.032073975
0.008422852 0.04623413 0.011795044 0.008926392 -0.016326904 0.07574463 0.018615723 -0.009651184
0.022491455 0.0022029877 -0.02947998 -0.0184021 0.0262146 -0.017028809 0.010253906 -0.047027588
-0.0047302246 -0.05206299 -0.020690918 0.0063323975 0.015258789 -0.0025577545 0.021026611 0.0060310364
0.0037078857 -0.004634857 0.038391113 0.022827148 -0.05307007 -0.0016994476 0.01374054 -0.010848999
0.0017948151 0.021957397 -0.0023956299 -0.022598267 -0.03302002 0.008377075 -0.0024032593 0.0070228577
-0.008453369 0.0072517395 -0.053344727 -0.0035800934 -0.034729004 -0.0035037994 -0.004058838 0.036590576
0.025482178 -0.014434814 0.018844604 0.02558899 -0.014877319 -0.04397583 -0.006259918 0.015090942
-0.027572632 -0.007259369 -0.0061035156 -0.0032291412 0.020431519 -0.007987976 -0.0073165894 -0.017471313
-0.058135986 0.020370483 -0.035003662 0.0065574646 0.033966064 -0.0039138794 0.009239197 -0.013343811
-0.0024223328 0.032684326 -0.12475586 -0.007537842 0.039978027 -0.048034668 0.03540039 0.0016698837
0.0335083 -0.026321411 0.012466431 0.007091522 0.006832123 -0.0057258606 -0.064575195 0.02128601
0.0070152283 0.048736572 0.011962891 -0.048858643 -0.06384277 0.0004954338 -0.02330017 -5.185604e-06
-0.050933838 0.013572693 0.009132385 0.05316162 -0.023727417 -0.010055542 0.0046691895 -0.011253357
0.033111572 -0.014053345 0.0073127747 0.0006313324 0.062042236 0.007797241 0.0052490234 0.018600464
-0.07116699 -0.0069389343 -0.029510498 0.007637024 -0.021835327 0.01687622 -0.006351471 -0.012275696
0.008178711 -0.0076675415 0.092041016 0.002544403 0.008132935 -0.0056915283 0.024108887 0.008895874
00000000: 00e0 82bd 0080 2d3c 0000 be3b 0000 1cbb
00000010: 0080 44bd 0020 143d 0060 ffba 00e0 a33c
00000020: 0060 4bbd 0080 a9ba 0000 823c 0020 94bc
00000030: 0060 9dbc 0080 2b3d 00e0 df3c 0020 133d
00000040: 0060 02bd 0080 0e3d 0000 96bd 0040 c2bc
00000050: 0020 5bbb 0060 623d 00c0 d53b 0060 cb3d
00000060: 0080 39ba 0060 26be 0020 3fbb 0060 c93d
00000070: 0040 c83d 00c0 713d 00a0 993b 00c0 793d
00000080: 0080 093e 0020 79bd 0000 0dbc 00c0 5cbc
00000090: 00e0 37bc 0080 c53c 0040 1dbc 00e0 e7bc
000000a0: 0040 513c 0080 e03c 0000 d73c 0060 a83c
000000b0: 00c0 6ebd 0080 6abd 00a0 3dba 0060 8bbd
000000c0: 00a0 33bd 00a0 d6bb 0020 383c 0060 e4bc
000000d0: 0000 973c 00c0 14bd 0020 3b3d 0000 ee3b
000000e0: 00c0 7cbb 00c0 4c3d 0080 8bbc 0080 703b
000000f0: 0060 733c 0040 8b3d 0000 10bd 0020 bb3b
00000100: 00e0 ec3c 00a0 d13d 00c0 e3bb 00e0 b73d
00000110: 00a0 7cbc 0040 c8ba 0000 fd3c 0000 dfba
00000120: 0040 093c 00a0 9cbd 0020 4b3d 0020 6e3d
00000130: 00c0 d93c 0000 e73d 0060 c2bc 0060 0fbc
00000140: 0060 ddbc 00e0 cf3d 0020 023d 0020 88bd
00000150: 00a0 16bd 0000 cc3d 0040 c6ba 0040 5dbc
00000160: 00a0 b0bb 0060 c2bc 00e0 9b3b 0060 4dbc
00000170: 0040 27bd 0080 7f3c 0000 7f3d 0020 9cbc
00000180: 0040 293c 00a0 47bc 0020 4c3c 0060 3d3b
00000190: 00c0 41bc 0080 a43c 0060 a43c 0020 81bb
000001a0: 0000 16bc 00e0 0fbc 00e0 973c 00c0 2abc
000001b0: 00c0 483c 0000 8c3c 0040 563c 0060 14bc
000001c0: 0040 74bc 00c0 873b 0020 4e3a 0000 b0bc
000001d0: 0000 02bd 0040 f83c 00e0 443c 0000 0839
000001e0: 0000 1fbc 00e0 a93c 00e0 f7bc 00a0 323d
000001f0: 00c0 9a3c 0020 cf39 00e0 94bc 0060 033d
00000200: 0000 0a3c 0060 3d3d 0040 413c 0040 123c
00000210: 00c0 85bc 0020 9b3d 0080 983c 0020 1ebc
00000220: 0040 b83c 0060 103b 0080 f1bc 00c0 96bc
00000230: 00c0 d63c 0080 8bbc 0000 283c 00a0 40bd
00000240: 0000 9bbb 0040 55bd 0080 a9bc 0080 cf3b
00000250: 0000 7a3c 00a0 27bb 0040 ac3c 00a0 c53b
00000260: 0000 733b 00e0 97bb 0040 1d3d 0000 bb3c
00000270: 0060 59bd 00c0 deba 0020 613c 00c0 31bc
00000280: 0040 eb3a 00e0 b33c 0000 1dbb 0020 b9bc
00000290: 0040 07bd 0040 093c 0080 1dbb 0020 e63b
000002a0: 0080 0abc 00a0 ed3b 0080 5abd 00a0 6abb
000002b0: 0040 0ebd 00a0 65bb 0000 85bb 00e0 153d
000002c0: 00c0 d03c 0080 6cbc 0060 9a3c 00a0 d13c
000002d0: 00c0 73bc 0020 34bd 0020 cdbb 0040 773c
000002e0: 00e0 e1bc 00e0 edbb 0000 c8bb 00a0 53bb
000002f0: 0060 a73c 00e0 02bc 00c0 efbb 0020 8fbc
00000300: 0020 6ebd 00e0 a63c 0060 0fbd 00e0 d63b
00000310: 0020 0b3d 0040 80bb 0060 173c 00a0 5abc
00000320: 00c0 1ebb 00e0 053d 0080 ffbd 0000 f7bb
00000330: 00c0 233d 00c0 44bd 0000 113d 00e0 da3a
00000340: 0040 093d 00a0 d7bc 0040 4c3c 0060 e83b
00000350: 00e0 df3b 00a0 bbbb 0040 84bd 0060 ae3c
00000360: 00e0 e53b 00a0 473d 0000 443c 0020 48bd
00000370: 00c0 82bd 00e0 013a 00e0 bebc 0000 aeb6
00000380: 00a0 50bd 0060 5e3c 00a0 153c 00c0 593d
00000390: 0060 c2bc 00c0 24bc 0000 993b 0060 38bc
000003a0: 00a0 073d 0040 66bc 00a0 ef3b 0080 253a
000003b0: 0020 7e3d 0080 ff3b 0000 ac3b 0060 983c
000003c0: 00c0 91bd 0060 e3bb 00c0 f1bc 0040 fa3b
000003d0: 00e0 b2bc 0040 8a3c 0020 d0bb 0020 49bc
000003e0: 0000 063c 0040 fbbb 0080 bc3d 00c0 263b
000003f0: 0040 053c 0080 babb 0080 c53c 00c0 113c

backbone.3.convs.1.bias f4 [24]
0.9980469 2.1171875 0.41308594 1.5175781 0.61376953 1.6279297 1.6513672 0.6176758
-1.6162109 0.18933105 -0.39331055 -0.6777344 3.3867188 1.2783203 3.15625 1.0615234
1.9726562 0.52001953 -0.3293457 1.0498047 0.4580078 -0.0062675476 1.25 1.296875
00000000: 0080 7f3f 0080 0740 0080 d33e 0040 c23f
00000010: 0020 1d3f 0060 d03f 0060 d33f 0020 1e3f
00000020: 00e0 cebf 00e0 413e 0060 c9be 0080 2dbf
00000030: 00c0 5840 00a0 a33f 0000 4a40 00e0 873f
00000040: 0080 fc3f 0020 053f 00a0 a8be 0060 863f
00000050: 0080 ea3e 0060 cdbb 0000 a03f 0000 a63f

backbone.4.convs.0.weight f4 [24, 1, 3, 3]
-0.23779297 -0.5957031 0.50097656 1.1728516 4.5039062 2.0507812 -0.046722412 1.5361328
2.0546875 -1.0869141 0.4099121 -1.1083984 -1.3925781 -5.4257812 0.29223633 -0.27661133
-0.39990234 0.328125 -0.49609375 -1.6308594 -0.16845703 -1.4814453 0.4338379 -1.1865234
-1.0419922 -1.0527344 -1.3603516 -0.09350586 3.1171875 2.28125 -2.0429688 3.8339844
-0.30297852 -0.8745117 0.8129883 1.1904297 -1.5507812 -2.3242188 -1.3056641 -2.3183594
0.53027344 -1.2851562 -2.2402344 -0.24438477 -1.7695312 -0.32299805 -1.2382812 -1.3505859
1.1025391 -3.9296875 -1.3291016 1.9414062 -0.6557617 -0.54589844 0.7290039 0.6118164
0.1875 -0.9067383 -6.8125 0.3828125 0.37768555 -0.8442383 -0.5654297 0.67626953
0.5620117 -1.3388672 -0.4165039 6.6484375 -0.9238281 -0.41235352 0.97558594 -0.50390625
0.8852539 1.3427734 0.006603241 1.5400391 5.6289062 0.2142334 0.45214844 1.7988281
1.40625 0.29882812 -1.1972656 -1.1611328 1.0439453 -1.96875 -0.8613281 1.8789062
2.0234375 0.31420898 -0.65283203 -1.7773438 1.3837891 -1.3007812 1.8095703 1.78125
-1.6279297 -0.34106445 -0.38793945 0.2775879 0.035949707 0.15917969 0.021133423 0.12609863
-0.07055664 -1.3076172 -4.484375 -0.63720703 0.11785889 -0.64941406 -0.48339844 0.71875
-4.8632812 0.5644531 1.7744141 2.6347656 0.31860352 -0.80908203 1.2558594 -1.1875
-1.4707031 -1.0488281 -2.1777344 0.11834717 -2.2089844 -1.7607422 0.082336426 -0.23303223
-0.5839844 -0.55859375 -6.2421875 -0.5541992 -0.052246094 -0.71533203 -0.26367188 -0.21264648
0.62597656 0.06185913 2.265625 5.296875 0.022720337 0.27856445 -0.4206543 -0.019821167
-0.7319336 -0.75146484 0.14916992 -0.48486328 5.8867188 -0.41186523 -0.044128418 1.2675781
0.25732422 -0.8691406 2.765625 1.2919922 -2.7675781 0.33447266 3.5292969 -1.2714844
-3.0976562 0.93847656 -0.24389648 -1.890625 1.6054688 -1.7773438 -4.5429688 1.1679688
0.80371094 1.5976562 1.8486328 -1.3544922 -1.1787109 0.8989258 -1.8154297 -4.03125
0.4326172 -0.19360352 -1.3583984 -1.5839844 -0.23083496 -0.3161621 0.13378906 -1.6484375
-5.6015625 -0.22705078 -1.3691406 -0.27807617 -0.055511475 1.5371094 1.8769531 0.26342773
0.94091797 4.171875 1.5712891 -0.24133301 -0.54785156 -0.2783203 -0.041900635 -0.49560547
0.8984375 0.31225586 0.5073242 0.9433594 0.82666016 1.8515625 0.50439453 -0.2685547
1.5800781 0.48168945 2.5800781 1.1503906 0.6689453 1.5341797 -1.8320312 0.20251465
00000000: 0080 73be 0080 18bf 0040 003f 0020 963f
00000010: 0020 9040 0040 0340 0060 3fbd 00a0 c43f
00000020: 0080 0340 0020 8bbf 00e0 d13e 00e0 8dbf
00000030: 0040 b2bf 00a0 adc0 00a0 953e 00a0 8dbe
00000040: 00c0 ccbe 0000 a83e 0000 febe 00c0 d0bf
00000050: 0080 2cbe 00a0 bdbf 0020 de3e 00e0 97bf
00000060: 0060 85bf 00c0 86bf 0020 aebf 0080 bfbd
00000070: 0080 4740 0000 1240 00c0 02c0 0060 7540
00000080: 0020 9bbe 00e0 5fbf 0020 503f 0060 983f
00000090: 0080 c6bf 00c0 14c0 0020 a7bf 0060 14c0
000000a0: 00c0 073f 0080 a4bf 0060 0fc0 0040 7abe
000000b0: 0080 e2bf 0060 a5be 0080 9ebf 00e0 acbf
000000c0: 0020 8d3f 0080 7bc0 0020 aabf 0080 f83f
000000d0: 00e0 27bf 00c0 0bbf 00a0 3a3f 00a0 1c3f
000000e0: 0000 403e 0020 68bf 0000 dac0 0000 c43e
000000f0: 0060 c13e 0020 58bf 00c0 10bf 0020 2d3f
00000100: 00e0 0f3f 0060 abbf 0040 d5be 00c0 d440
00000110: 0080 6cbf 0020 d3be 00c0 793f 0000 01bf
00000120: 00a0 623f 00e0 ab3f 0060 d83b 0020 c53f
00000130: 0020 b440 0060 5b3e 0080 e73e 0040 e63f
00000140: 0000 b43f 0000 993e 0040 99bf 00a0 94bf
00000150: 00a0 853f 0000 fcbf 0080 5cbf 0080 f03f
00000160: 0080 0140 00e0 a03e 0020 27bf 0080 e3bf
00000170: 0020 b13f 0080 a6bf 00a0 e73f 0000 e43f
00000180: 0060 d0bf 00a0 aebe 00a0 c6be 0020 8e3e
00000190: 0040 133d 0000 233e 0020 ad3c 0020 013e
000001a0: 0080 90bd 0060 a7bf 0080 8fc0 0020 23bf
000001b0: 0060 f13d 0040 26bf 0080 f7be 0000 383f
000001c0: 00a0 9bc0 0080 103f 0020 e33f 00a0 2840
000001d0: 0020 a33e 0020 4fbf 00c0 a03f 0000 98bf
000001e0: 0040 bcbf 0040 86bf 0060 0bc0 0060 f23d
000001f0: 0060 0dc0 0060 e1bf 00a0 a83d 00a0 6ebe
00000200: 0080 15bf 0000 0fbf 00c0 c7c0 00e0 0dbf
00000210: 0000 56bd 0020 37bf 0000 87be 00c0 59be
00000220: 0040 203f 0060 7d3d 0000 1140 0080 a940
00000230: 0020 ba3c 00a0 8e3e 0060 d7be 0060 a2bc
00000240: 0060 3bbf 0060 40bf 00c0 183e 0040 f8be
00000250: 0060 bc40 00e0 d2be 00c0 34bd 0040 a23f
00000260: 00c0 833e 0080 5ebf 0000 3140 0060 a53f
00000270: 0020 31c0 0040 ab3e 00e0 6140 00c0 a2bf
00000280: 0040 46c0 0040 703f 00c0 79be 0000 f2bf
00000290: 0080 cd3f 0080 e3bf 0060 91c0 0080 953f
000002a0: 00c0 4d3f 0080 cc3f 00a0 ec3f 0060 adbf
000002b0: 00e0 96bf 0020 663f 0060 e8bf 0000 81c0
000002c0: 0080 dd3e 0040 46be 00e0 adbf 00c0 cabf
000002d0: 0060 6cbe 00e0 a1be 0000 093e 0000 d3bf
000002e0: 0040 b3c0 0080 68be 0040 afbf 0060 8ebe
000002f0: 0060 63bd 00c0 c43f 0040 f03f 00e0 863e
00000300: 00e0 703f 0080 8540 0020 c93f 0020 77be
00000310: 0040 0cbf 0080 8ebe 00a0 2bbd 00c0 fdbe
00000320: 0000 663f 00e0 9f3e 00e0 013f 0080 713f
00000330: 00a0 533f 0000 ed3f 0020 013f 0080 89be
00000340: 0040 ca3f 00a0 f63e 0020 2540 0040 933f
00000350: 0040 2b3f 0060 c43f 0080 eabf 0060 4f3e

backbone.4.convs.0.bias f4 [24]
0.0 0.0 0.0 0.0 0.0 0.0 0.0 0.0
0.0 0.0 0.0 0.0 0.0 0.0 0.0 0.0
0.0 0.0 0.0 0.0 0.0 0.0 0.0 0.0
00000000: 0000 0000 0000 0000 0000 0000 0000 0000
00000010: 0000 0000 0000 0000 0000 0000 0000 0000
00000020: 0000 0000 0000 0000 0000 0000 0000 0000
00000030: 0000 0000 0000 0000 0000 0000 0000 0000
00000040: 0000 0000 0000 0000 0000 0000 0000 0000
00000050: 0000 0000 0000 0000 0000 0000 0000 0000

backbone.4.convs.1.weight f4 [24, 24, 1, 1]
-0.028320312 -0.08123779 0.015197754 -0.019104004 -0.0052757263 -0.0074768066 -0.051696777 -0.08935547
-0.050628662 0.016036987 0.0008120537 0.009536743 -0.023208618 0.018936157 -0.027313232 -0.0064468384
0.038726807 -0.018966675 0.02923584 -0.08190918 0.036254883 0.004764557 -0.019210815 -0.0056037903
-0.031829834 0.14453125 0.030838013 0.02053833 0.034088135 -0.014953613 0.032989502 -0.0066070557
-0.009880066 0.0065727234 -0.049102783 -0.03289795 0.0029506683 0.007633209 -0.007648468 -0.011154175
-0.027557373 -0.25317383 -0.06945801 0.0010728836 0.023834229 -0.0014276505 -0.008094788 0.008483887
0.014793396 0.003376007 0.013076782 0.028915405 0.022705078 -0.03161621 -0.03479004 -0.010665894
0.025543213 -0.015327454 0.032836914 -0.023239136 0.03778076 0.0124053955 -0.013145447 0.0066490173
-0.0127334595 0.032470703 0.0076522827 -0.00018036366 0.014717102 -0.0006055832 0.021881104 -0.009468079
0.021942139 0.036865234 0.0018644333 -0.04611206 0.0006875992 0.1027832 0.018737793 0.055725098
-0.0014829636 -0.028457642 0.0061073303 0.005168915 -0.041259766 0.006465912 0.015792847 -0.037841797
-0.05618286 0.007827759 0.024795532 0.040252686 0.025405884 0.0007901192 0.018310547 -0.015563965
-0.016220093 0.02381897 0.019729614 -0.010528564 0.02229309 -0.005592346 -0.02949524 -0.04269409
-0.014381409 -0.016433716 -0.0017004013 0.00793457 -0.01878357 0.017425537 0.027359009 -0.04446411
0.02243042 0.04446411 0.015014648 -0.012969971 0.0109939575 0.01550293 -0.0014820099 -0.006904602
-0.013320923 -0.009689331 0.011764526 -0.060821533 0.007209778 0.026351929 -0.010383606 -0.03111267
-0.006969452 -0.006263733 0.018371582 0.0067634583 -0.014350891 -0.0062713623 -0.027359009 0.008880615
3.0994415e-06 0.019561768 0.032226562 -0.01260376 0.014633179 0.020996094 -0.016738892 -0.059539795
0.019943237 0.032409668 0.02558899 0.0206604 -0.010345459 0.048950195 0.04852295 -0.07318115
-0.0071411133 0.024597168 0.02809143 -0.029815674 0.010002136 0.029251099 0.11810303 -0.036346436
-0.018203735 0.0011062622 -0.0016021729 0.007801056 0.060699463 -0.03253174 -0.0345459 -0.032714844
0.016082764 -0.0046424866 -0.0021038055 0.007106781 -0.015129089 -0.004699707 -0.017196655 -0.046783447
-0.022766113 0.09429932 -0.009185791 -0.009765625 -0.0028476715 0.06689453 -0.0020713806 -0.007637024
-0.083740234 0.008773804 0.040100098 -0.039733887 0.024658203 0.026504517 0.012023926 -0.008865356
0.0068740845 0.022735596 -0.035186768 -0.015312195 0.04788208 0.025634766 0.055419922 0.0031604767
-0.08538818 -0.020477295 -0.00026202202 -0.013977051 -0.03086853 0.012908936 -0.026672363 0.0124053955
-0.004146576 0.0033626556 0.008010864 0.066589355 -0.038635254 0.0069770813 -0.024749756 -0.0132369995
0.0056877136 0.076660156 0.056152344 -0.0032863617 0.042236328 -0.05050659 0.01914978 -0.004814148
-0.0030651093 -0.044647217 0.029403687 -0.024597168 0.0030918121 0.03149414 0.049743652 0.0110321045
-0.03060913 -0.011154175 0.008934021 -0.011329651 -0.027862549 -0.027648926 -0.048797607 -0.03564453
-0.0010204315 0.0020103455 -0.002073288 0.015403748 0.012649536 0.009017944 -0.025527954 -0.009613037
-0.021865845 -0.012565613 0.004634857 0.01512146 0.003501892 0.01499939 0.0026073456 0.008415222
00000000: 0000 e8bc 0060 a6bd 0000 793c 0080 9cbc
00000010: 00e0 acbb 0000 f5bb 00c0 53bd 0000 b7bd
00000020: 0060 4fbd 0060 833c 00e0 543a 0040 1c3c
00000030: 0020 bebc 0020 9b3c 00c0 dfbc 0040 d3bb
00000040: 00a0 1e3d 0060 9bbc 0080 ef3c 00c0 a7bd
00000050: 0080 143d 0020 9c3b 0060 9dbc 00a0 b7bb
00000060: 0060 02bd 0000 143e 00a0 fc3c 0040 a83c
00000070: 00a0 0b3d 0000 75bc 0020 073d 0080 d8bb
00000080: 00e0 21bc 0060 d73b 0020 49bd 00c0 06bd
00000090: 0060 413b 0020 fa3b 00a0 fabb 00c0 36bc
000000a0: 00c0 e1bc 00a0 81be 0040 8ebd 00a0 8c3a
000000b0: 0040 c33c 0020 bbba 00a0 04bc 0000 0b3c
000000c0: 0060 723c 0040 5d3b 0040 563c 00e0 ec3c
000000d0: 0000 ba3c 0080 01bd 0080 0ebd 00c0 2ebc
000000e0: 0040 d13c 0020 7bbc 0080 063d 0060 bebc
000000f0: 00c0 1a3d 0040 4b3c 0060 57bc 00e0 d93b
00000100: 00a0 50bc 0000 053d 00c0 fa3b 0020 3db9
00000110: 0020 713c 00c0 1eba 0040 b33c 0020 1bbc
00000120: 00c0 b33c 0000 173d 0060 f43a 00e0 3cbd
00000130: 0040 343a 0080 d23d 0080 993c 0040 643d
00000140: 0060 c2ba 0020 e9bc 0020 c83b 0060 a93b
00000150: 0000 29bd 00e0 d33b 0060 813c 0000 1bbd
00000160: 0020 66bd 0040 003c 0020 cb3c 00e0 243d
00000170: 0020 d03c 0020 4f3a 0000 963c 0000 7fbc
00000180: 00e0 84bc 0020 c33c 00a0 a13c 0080 2cbc
00000190: 00a0 b63c 0040 b7bb 00a0 f1bc 00e0 2ebd
000001a0: 00a0 6bbc 00a0 86bc 00e0 deba 0000 023c
000001b0: 00e0 99bc 00c0 8e3c 0020 e03c 0020 36bd
000001c0: 00c0 b73c 0020 363d 0000 763c 0080 54bc
000001d0: 0020 343c 0000 7e3c 0040 c2ba 0040 e2bb
000001e0: 0040 5abc 00c0 1ebc 00c0 403c 0020 79bd
000001f0: 0040 ec3b 00e0 d73c 0020 2abc 00e0 febc
00000200: 0060 e4bb 0040 cdbb 0080 963c 00a0 dd3b
00000210: 0020 6bbc 0080 cdbb 0020 e0bc 0080 113c
00000220: 0000 5036 0040 a03c 0000 043d 0080 4ebc
00000230: 00c0 6f3c 0000 ac3c 0020 89bc 00e0 73bd
00000240: 0060 a33c 00c0 043d 00a0 d13c 0040 a93c
00000250: 0080 29bc 0080 483d 00c0 463d 00e0 95bd
00000260: 0000 eabb 0080 c93c 0020 e63c 0040 f4bc
00000270: 00e0 233c 00a0 ef3c 00e0 f13d 00e0 14bd
00000280: 0020 95bc 0000 913a 0000 d2ba 00a0 ff3b
00000290: 00a0 783d 0040 05bd 0080 0dbd 0000 06bd
000002a0: 00c0 833c 0020 98bb 00e0 09bb 00e0 e83b
000002b0: 00e0 77bc 0000 9abb 00e0 8cbc 00a0 3fbd
000002c0: 0080 babc 0020 c13d 0080 16bc 0000 20bc
000002d0: 00a0 3abb 0000 893d 00c0 07bb 0040 fabb
000002e0: 0080 abbd 00c0 0f3c 0040 243d 00c0 22bd
000002f0: 0000 ca3c 0020 d93c 0000 453c 0040 11bc
00000300: 0040 e13b 0040 ba3c 0020 10bd 00e0 7abc
00000310: 0020 443d 0000 d23c 0000 633d 0020 4f3b
00000320: 00e0 aebd 00c0 a7bc 0060 89b9 0000 65bc
00000330: 00e0 fcbc 0080 533c 0080 dabc 0040 4b3c
00000340: 00e0 87bb 0060 5c3b 0040 033c 0060 883d
00000350: 0040 1ebd 00a0 e43b 00c0 cabc 00e0 58bc
00000360: 0060 ba3b 0000 9d3d 0000 663d 0060 57bb
00000370: 0000 2d3d 00e0 4ebd 00e0 9c3c 00c0 9dbb
00000380: 00e0 48bb 00e0 36bd 00e0 f03c 0080 c9bc
00000390: 00a0 4a3b 0000 013d 00c0 4b3d 00c0 343c
000003a0: 00c0 fabc 00c0 36bc 0060 123c 00a0 39bc
000003b0: 0040 e4bc 0080 e2bc 00e0 47bd 0000 12bd
000003c0: 00c0 85ba 00c0 033b 00e0 07bb 0060 7c3c
000003d0: 0040 4f3c 00c0 133c 0020 d1bc 0080 1dbc
000003e0: 0020 b3bc 00e0 4dbc 00e0 973b 00c0 773c
000003f0: 0080 653b 00c0 753c 00e0 2a3b 00e0 093c

backbone.4.convs.1.bias f4 [24]
0.3762207 1.453125 0.016784668 2.6933594 2.8125 1.8457031 4.203125 2.5917969
1.3955078 5.2421875 1.2509766 2.3769531 5.0078125 -1.8769531 2.5917969 -0.2993164
2.7910156 0.78466797 2.0585938 0.14575195 -6.3242188 4.7851562 0.7128906 0.124816895
00000000: 00a0 c03e 0000 ba3f 0080 893c 0060 2c40
00000010: 0000 3440 0040 ec3f 0080 8640 00e0 2540
00000020: 00a0 b23f 00c0 a740 0020 a03f 0020 1840
00000030: 0040 a040 0040 f0bf 00e0 2540 0040 99be
00000040: 00a0 3240 00e0 483f 00c0 0340 0040 153e
00000050: 0060 cac0 0020 9940 0080 363f 00a0 ff3d

backbone.5.convs.0.weight f4 [24, 1, 3, 3]
-1.7236328 0.9482422 2.1777344 -4.5078125 -2.34375 2.1992188 0.13049316 0.4921875
-0.08770752 0.17333984 -1.0791016 -0.7290039 -1.5332031 -4.6289062 -0.6870117 0.5620117
-1.1914062 -0.4326172 -0.040649414 0.75097656 0.86816406 0.54833984 2.3710938 1.0986328
0.2590332 3.4140625 1.3076172 0.3564453 0.2434082 -0.052215576 1.0527344 -4.4648438
-2.1953125 -1.1376953 -0.92578125 -0.4296875 0.67529297 -0.56103516 -2.0449219 -0.8466797
2.0625 -1.5361328 1.1923828 -4.0859375 -2.6503906 0.54833984 1.4248047 -0.7602539
2.1796875 3.9609375 -2.4335938 0.84814453 -0.11090088 -0.74560547 -2.0585938 -3.2207031
-0.32763672 -2.0097656 1.4179688 0.13293457 1.1308594 4.609375 1.5390625 0.16259766
-1.0351562 -1.0292969 2.1210938 1.7636719 -0.12030029 0.38891602 1.2890625 1.2050781
1.0205078 1.03125 -0.34155273 -1.2890625 -3.7109375 1.7832031 1.3398438 1.3203125
2.5878906 0.26757812 -0.8540039 0.7651367 -0.29248047 -5.671875 0.92333984 -0.6738281
0.24157715 0.68896484 -0.11352539 1.4892578 1.3408203 0.5571289 5.9960938 1.6259766
0.4074707 0.67822266 0.81884766 1.2138672 -0.9511719 -1.1289062 0.9321289 -1.6513672
-0.51171875 1.734375 -1.0009766 0.18151855 -0.39453125 -0.078552246 0.058380127 -0.8041992
-3.28125 -0.04373169 -1.2519531 -0.053619385 0.25683594 0.12237549 -0.064575195 0.5161133
1.2197266 2.84375 1.1650391 0.70214844 2.9511719 1.7441406 0.9038086 -0.41577148
0.11584473 1.6982422 4.3515625 0.64697266 0.49023438 3.0527344 0.18713379 0.5498047
1.0185547 0.14099121 1.1728516 6.203125 0.14294434 1.1611328 1.4443359 -0.039764404
2.0957031 0.8022461 -0.14831543 1.7392578 2.890625 0.07281494 0.88427734 -1.4023438
-0.4326172 -0.9477539 -1.9746094 -0.61816406 0.24035645 -4.4726562 -0.08526611 0.4050293
1.4599609 0.88916016 1.6552734 0.41503906 1.9912109 1.2822266 -1.2871094 0.43652344
1.7001953 0.0345459 0.73779297 -0.1809082 0.9082031 1.1337891 -0.5786133 -4.5390625
0.50634766 0.45288086 0.16992188 0.29833984 -0.89208984 -1.4658203 -0.55371094 -1.2285156
-5.0898438 -1.2373047 -0.11151123 -0.5390625 -0.7290039 -0.113464355 3.1855469 0.27294922
-2.8945312 2.8652344 -0.06567383 -1.0537109 -1.3759766 -0.38427734 -0.44067383 -1.8603516
-0.120910645 -0.85302734 5.7304688 -0.50634766 -0.66259766 -1.4580078 -0.24414062 0.86328125
-1.0429688 -0.45263672 1.6591797 4.7695312 -0.21252441 -0.31103516 -0.7182617 0.11413574
00000000: 00a0 dcbf 00c0 723f 0060 0b40 0040 90c0
00000010: 0000 16c0 00c0 0c40 00a0 053e 0000 fc3e
00000020: 00a0 b3bd 0080 313e 0020 8abf 00a0 3abf
00000030: 0040 c4bf 0020 94c0 00e0 2fbf 00e0 0f3f
00000040: 0080 98bf 0080 ddbe 0080 26bd 0040 403f
00000050: 0040 5e3f 0060 0c3f 00c0 1740 00a0 8c3f
00000060: 00a0 843e 0080 5a40 0060 a73f 0080 b63e
00000070: 0040 793e 00e0 55bd 00c0 863f 00e0 8ec0
00000080: 0080 0cc0 00a0 91bf 0000 6dbf 0000 dcbe
00000090: 00e0 2c3f 00a0 0fbf 00e0 02c0 00c0 58bf
000000a0: 0000 0440 00a0 c4bf 00a0 983f 00c0 82c0
000000b0: 00a0 29c0 0060 0c3f 0060 b63f 00a0 42bf
000000c0: 0080 0b40 0080 7d40 00c0 1bc0 0020 593f
000000d0: 0020 e3bd 00e0 3ebf 00c0 03c0 0020 4ec0
000000e0: 00c0 a7be 00a0 00c0 0080 b53f 0020 083e
000000f0: 00c0 903f 0080 9340 0000 c53f 0080 263e
00000100: 0080 84bf 00c0 83bf 00c0 0740 00c0 e13f
00000110: 0060 f6bd 0020 c73e 0000 a53f 0040 9a3f
00000120: 00a0 823f 0000 843f 00e0 aebe 0000 a5bf
00000130: 0080 6dc0 0040 e43f 0080 ab3f 0000 a93f
00000140: 00a0 2540 0000 893e 00a0 5abf 00e0 433f
00000150: 00c0 95be 0080 b5c0 0060 6c3f 0080 2cbf
00000160: 0060 773e 0060 303f 0080 e8bd 00a0 be3f
00000170: 00a0 ab3f 00a0 0e3f 00e0 bf40 0020 d03f
00000180: 00a0 d03e 00a0 2d3f 00a0 513f 0060 9b3f
00000190: 0080 73bf 0080 90bf 00a0 6e3f 0060 d3bf
000001a0: 0000 03bf 0000 de3f 0020 80bf 00e0 393e
000001b0: 0000 cabe 00e0 a0bd 0020 6f3d 00e0 4dbf
000001c0: 0000 52c0 0020 33bd 0040 a0bf 00a0 5bbd
000001d0: 0080 833e 00a0 fa3d 0040 84bd 0020 043f
000001e0: 0020 9c3f 0000 3640 0020 953f 00c0 333f
000001f0: 00e0 3c40 0040 df3f 0060 673f 00e0 d4be
00000200: 0040 ed3d 0060 d93f 0040 8b40 00a0 253f
00000210: 0000 fb3e 0060 4340 00a0 3f3e 00c0 0c3f
00000220: 0060 823f 0060 103e 0020 963f 0080 c640
00000230: 0060 123e 00a0 943f 00e0 b83f 00e0 22bd
00000240: 0020 0640 0060 4d3f 00e0 17be 00a0 de3f
00000250: 0000 3940 0020 953d 0060 623f 0080 b3bf
00000260: 0080 ddbe 00a0 72bf 00c0 fcbf 0040 1ebf
00000270: 0020 763e 0020 8fc0 00a0 aebd 0060 cf3e
00000280: 00e0 ba3f 00a0 633f 00e0 d33f 0080 d43e
00000290: 00e0 fe3f 0020 a43f 00c0 a4bf 0080 df3e
000002a0: 00a0 d93f 0080 0d3d 00e0 3c3f 0040 39be
000002b0: 0080 683f 0020 913f 0020 14bf 0040 91c0
000002c0: 00a0 013f 00e0 e73e 0000 2e3e 00c0 983e
000002d0: 0060 64bf 00a0 bbbf 00c0 0dbf 0040 9dbf
000002e0: 00e0 a2c0 0060 9ebf 0060 e4bd 0000 0abf
000002f0: 00a0 3abf 0060 e8bd 00e0 4b40 00c0 8b3e
00000300: 0040 39c0 0060 3740 0080 86bd 00e0 86bf
00000310: 0020 b0bf 00c0 c4be 00a0 e1be 0020 eebf
00000320: 00a0 f7bd 0060 5abf 0060 b740 00a0 01bf
00000330: 00a0 29bf 00a0 babf 0000 7abe 0000 5d3f
00000340: 0080 85bf 00c0 e7be 0060 d43f 00a0 9840
00000350: 00a0 59be 0040 9fbe 00e0 37bf 00c0 e93d

backbone.5.convs.0.bias f4 [24]
0.0 0.0 0.0 0.0 0.0 0.0 0.0 0.0
0.0 0.0 0.0 0.0 0.0 0.0 0.0 0.0
0.0 0.0 0.0 0.0 0.0 0.0 0.0 0.0
00000000: 0000 0000 0000 0000 0000 0000 0000 0000
00000010: 0000 0000 0000 0000 0000 0000 0000 0000
00000020: 0000 0000 0000 0000 0000 0000 0000 0000
00000030: 0000 0000 0000 0000 0000 0000 0000 0000
00000040: 0000 0000 0000 0000 0000 0000 0000 0000
00000050: 0000 0000 0000 0000 0000 0000 0000 0000
